model.pth (torch_old, 28405 bytes, 6 tensors)

fc1.weight f4 [64, 37]
0.041871145 0.04451333 -0.0023898082 -0.28106585 0.032897204 0.029137362 0.0018582053 0.13054104
0.018013434 -0.021614125 0.15825333 -0.079892434 -0.31004673 -0.31995794 -0.6849889 0.1033562
-0.024022117 0.03293617 -0.24071835 0.18910965 0.013038917 0.08632604 0.11754423 0.14800833
-0.0803088 0.06261659 -0.17167826 -0.023698173 -0.029016785 -0.081821926 -0.07454992 0.27720454
-0.15507479 -0.104569696 -0.11075219 -0.08319753 -0.013105278 0.14911373 0.11092289 0.031636138
0.08832698 -0.05051037 0.18521859 -0.17224191 -0.27599168 -0.15723635 -0.94706094 -0.01339635
-0.0024678947 0.05844288 0.11232511 0.20587035 0.028387876 0.008827158 0.027591102 0.22112685
0.21013556 -0.13456404 -0.10379732 0.007955081 -0.045203947 0.16550209 -0.10011219 0.126538
0.025248718 -0.07076813 0.019278964 -0.03987409 0.17177308 0.08848141 0.009903477 0.048278145
-0.0023285178 -0.012111126 0.47728083 -0.26913944 -0.29152408 -0.38342765 -1.788975 0.067572095
-0.014747776 0.049682822 0.024367256 -0.078634724 -0.04098263 0.028436873 -0.013929591 -0.02624382
0.04024183 0.050558846 0.10571487 0.06378832 0.19046004 0.14291237 -0.10530839 -0.01944664
-0.0012594821 0.0755726 0.042604066 0.02273387 0.06655995 0.067213915 0.14803725 0.057666026
-0.109097764 -0.0516167 -0.09653983 -0.111624956 0.041710053 -0.0010778188 0.007033245 0.223996
0.057223756 0.17613834 0.018706663 -0.18132873 0.17968065 0.08869027 0.004376576 0.014117319
-0.06543192 0.22100657 -0.018277382 0.06873307 -0.15714763 -0.40495354 0.1466519 -0.03358436
-0.007901135 -0.24679747 -0.49007058 0.116007924 0.023127249 0.039527606 0.17784442 0.12270307
0.072055414 0.059248976 0.12160954 0.25289774 0.2149671 0.31149673 0.060381517 0.051790114
-0.039098766 -0.26577193 0.029706215 0.0047736187 -0.115439445 -0.08768077 -0.1078189 -0.1337166
0.034449764 0.053603034 0.13997626 0.058648564 0.03742792 -0.016129775 -0.0009246617 -0.025838086
-0.03600541 -0.12083176 -0.1331237 -0.13847317 -0.028540544 -0.017406333 0.018862713 0.24301864
-0.0041025616 0.00716748 0.072286904 0.09925204 0.15970516 0.32210723 -0.6063659 -0.25150496
-0.45001495 -1.7194914 -0.073389225 0.00901551 0.08281473 0.10757334 0.19662282 0.016407073
0.00062335277 -0.050561253 0.026092958 0.09352736 -0.013144787 0.05586729 0.36132893 -0.50702095
-0.28264788 -0.41221786 -2.0277007 -0.054274548 0.03551203 0.04705844 -0.119242124 0.050030746
0.040672317 0.08353662 -0.10224835 -0.054578476 0.056643944 0.1169251 0.06546768 0.18519983
0.114537925 0.20062618 0.030168641 -0.028700938 -0.00051004713 -0.03829678 -0.06358533 -0.04649764
-0.029882947 0.10252665 0.116830155 -0.018578421 0.029374262 0.030426932 -0.07569207 0.11661944
-0.119357504 -0.20070595 -0.07809761 -0.31172222 -0.10967385 0.14785182 -0.3394007 0.38950253
-0.22275361 0.15980336 -0.024013959 -0.1348175 0.09884331 -0.106700994 -0.24634886 -0.12709428
0.119389415 0.021014016 -0.10732264 0.031355873 -0.061016414 -0.31771562 0.22946109 -0.16973798
0.19167289 -0.32997155 -0.22493422 -0.09222558 0.10118401 -0.13372427 -0.21930046 -0.11165019
00000000: 1481 2b3d 9c53 363d 549e 1cbb dde7 8fbe
00000010: 38bf 063d 7ab1 ee3c 068f f33a 8dac 053e
00000020: e990 933c 1b10 b1bc 290d 223e a59e a3bd
00000030: 72be 9ebe 87d1 a3be 6f5b 2fbf 6aac d33d
00000040: 08ca c4bc 14e8 063d df7e 76be f6a5 413e
00000050: 2fa1 553c b5cb b03d 07bb f03d 7f8f 173e
00000060: f178 a4bd 203d 803d 6dcc 2fbe ac22 c2bc
00000070: 9cb4 edbc 4192 a7bd a1ad 98bd c1ed 8d3e
00000080: edcb 1ebe a328 d6bd 0bd2 e2bd 7763 aabd
00000090: 85b7 56bc 45b1 183e 8a2b e33d e594 013d
000000a0: c7e4 b43d f6e3 4ebd f1a9 3d3e 2f60 30be
000000b0: c84e 8dbe 9102 21be 9672 72bf 5d7c 5bbc
000000c0: 67bc 21bb cd61 6f3d b50a e63d adcf 523e
000000d0: b18d e83c c99f 103c bc06 e23c 146f 623e
000000e0: c72d 573e 28cb 09be b093 d4bd 0756 023c
000000f0: c627 39bd 6179 293e 9f07 cdbd 2d93 013e
00000100: 66d6 ce3c e2ee 90bd ebee 9d3c 0453 23bd
00000110: 48e5 2f3e be35 b53d 3142 223c 4ebf 453d
00000120: 0c9a 18bb bf6d 46bc 275e f43e a5cc 89be
00000130: a542 95be a150 c4be 22fd e4bf 3d63 8a3d
00000140: a8a0 71bc 3780 4b3d d79d c73c 3e0b a1bd
00000150: 67dd 27bd 72f4 e83c f038 64bc 48fd d6bc
00000160: 9ed4 243d cb16 4f3d 0a81 d83d 73a3 823d
00000170: f507 433e 9f57 123e edab d7bd 8f4e 9fbc
00000180: 3515 a5ba cfc5 9a3d 9a81 2e3d 623c ba3c
00000190: 9550 883d 73a7 893d 1497 173e 3633 6c3d
000001a0: a66e dfbd 086c 53bd adb6 c5bd a09b e4bd
000001b0: 29d8 2a3d 9945 8dba 2377 e63b 355f 653e
000001c0: 7563 6a3d 9c5d 343e b73e 993c 3dae 39be
000001d0: 34fe 373e 3fa3 b53d 6169 8f3b 544c 673c
000001e0: 2c01 86bd 8c4f 623e 73ba 95bc ecc3 8c3d
000001f0: 4feb 20be 1256 cfbe ea2b 163e c18f 09bd
00000200: c373 01bc 7ab8 7cbe 88ea fabe 9095 ed3d
00000210: 5b75 bd3c b3e7 213d d91c 363e bf4b fb3d
00000220: ca91 933d 0eaf 723d 6c0e f93d d07b 813e
00000230: 5620 5c3e 807c 9f3e 9c52 773d df21 543d
00000240: 0726 20bd 4213 88be 735a f33c 046c 9c3b
00000250: 846b ecbd fa91 b3bd 28d0 dcbd 01ed 08be
00000260: 321b 0d3d db8e 5b3d f055 0f3e 7a39 703d
00000270: 054e 193d 9722 84bc ff64 72ba 65aa d3bc
00000280: 697a 13bd a476 f7bd 9451 08be e9cb 0dbe
00000290: dccd e9bc ba97 8ebc fa85 9a3c e1d9 783e
000002a0: c86e 86bb 2edd ea3b 280b 943d a744 cb3d
000002b0: c089 233e 3deb a43e cc3a 1bbf 42c5 80be
000002c0: 5c68 e6be 4b18 dcbf 174d 96bd cab5 133c
000002d0: c59a a93d 694f dc3d 7e57 493e 2068 863c
000002e0: 7f68 233a 5119 4fbd e6c0 d53c 468b bf3d
000002f0: 3c5d 57bc 19d5 643d 1b00 b93e 20cc 01bf
00000300: 39b7 90be 380e d3be d9c5 01c0 fd4e 5ebd
00000310: 1075 113d 5ac0 403d 3735 f4bd 0aed 4c3d
00000320: 0498 263d 3f15 ab3d 9567 d1bd ae8d 5fbd
00000330: 7b03 683d 6d76 ef3d eb13 863d 06a5 3d3e
00000340: dc92 ea3d f370 4d3e 3a24 f73c 3b1e ebbc
00000350: afb4 05ba 16dd 1cbd 0739 82bd 4f74 3ebd
00000360: 15cd f4bc 7ef9 d13d a644 ef3d c631 98bc
00000370: 4ba2 f03c e741 f93c 7204 9bbd 2cd6 ee3d
00000380: b571 f4bd dc85 4dbe a4f1 9fbd 0e9a 9fbe
00000390: af9c e0bd 7866 173e eec5 adbe e06c c73e
000003a0: 8619 64be 7ea3 233e ecb8 c4bc 990d 0abe
000003b0: 5c6e ca3d 0d86 dabd e042 7cbe 0125 02be
000003c0: 7082 f43d 9625 ac3c f9cb dbbd 046f 003d
000003d0: 59ec 79bd 9fab a2be d9f7 6a3e cbcf 2dbe
000003e0: e645 443e 08f2 a8be 2855 66be c4e0 bcbd
000003f0: 9039 cf3d 04ef 08be 4d90 60be dba8 e4bd

fc1.bias f4 [64]
0.12005338 -0.03459422 -0.10309448 0.05457356 0.1776332 0.028508391 -0.1321862 0.050714877
-0.011823988 -0.20587583 0.17094032 0.18337269 0.13825773 0.12708108 -0.08149034 -0.084024586
0.06846097 -0.056226082 0.014281236 -0.20843604 -0.06584289 0.119195044 0.047542892 -0.045296714
-0.116969965 0.20083117 -0.11634865 -0.22875632 0.12962206 0.10599727 -0.15577634 -0.27245378
0.108394735 0.020797325 -0.040190477 0.0076589515 -0.035728227 0.037214585 -0.022868127 -0.16508006
-0.076264486 0.040185772 -0.06976429 0.11678207 0.06873424 -0.14767732 0.07899621 -0.17273906
-0.14336869 0.028753912 -0.023479195 0.1376267 -0.02205457 -0.16072352 -0.22698693 -0.0073003937
0.019546874 -0.087083824 -0.080878876 -0.13760728 -0.033080038 0.041525126 0.0847653 -0.01836543
00000000: 8cde f53d abb2 0dbd 3323 d3bd 8688 5f3d
00000010: 7ae5 353e 6e8a e93c d25b 07be 67ba 4f3d
00000020: 66b9 41bc 1dd1 52be fb0a 2f3e 0dc6 3b3e
00000030: 6f93 0d3e 8b21 023e 68e4 a6bd 1515 acbd
00000040: 4435 8c3d 524d 66bd d8fb 693c 4270 55be
00000050: a3d8 86bd 881c f43d 56bc 423d 0c89 39bd
00000060: f38d efbd b0a6 4d3e 3348 eebd 193f 6abe
00000070: a5bb 043e 1915 d93d d583 1fbe 107f 8bbe
00000080: 0ffe dd3d 275f aa3c c59e 24bd f1f7 fa3b
00000090: c357 12bd 526e 183d f055 bbbc bf0a 29be
000000a0: 8e30 9cbd d699 243d 94e0 8ebd 702b ef3d
000000b0: 8ac4 8c3d b938 17be c4c8 a13d 82e2 30be
000000c0: 3ecf 12be 538d eb3c 7157 c0bc 03ee 0c3e
000000d0: c9ab b4bc b594 24be 436f 68be 2438 efbb
000000e0: c420 a03c 0159 b2bd d3a3 a5bd ece8 0cbe
000000f0: ef7e 07bd 4016 2a3d 6e99 ad3d 1973 96bc

fc2.weight f4 [64, 64]
-0.100291505 -0.034235638 -0.10208283 -0.028869025 0.4521277 -0.07635748 0.09409796 -0.07602533
-0.0865572 0.02520521 0.006540658 -0.065545455 0.05131778 0.29385474 -0.0464131 -0.11220137
-0.12723717 -0.20070887 0.18475279 0.2598232 -0.07260493 -0.21380953 0.0070837103 -0.2236554
-0.2149039 0.00837118 0.06075941 -0.044037435 -0.0764305 0.07163728 0.07637714 -0.2528081
0.25272712 -0.009035182 -0.058290556 -0.22594766 -0.037174433 0.33068833 -0.1632387 -0.1020816
-0.35148588 -0.14338435 0.043394055 -0.030623525 -0.015958698 -0.20204578 -0.251084 -0.0067124898
-0.14279531 -0.025230506 -0.0011531407 -0.09991999 -0.09275969 -0.2953244 0.020917078 -0.034062777
0.11630054 -0.21930441 -0.29381114 0.010667096 0.18029448 0.28182414 -0.023872323 -0.09068673
0.05627627 0.15751083 -0.19406073 0.07213855 -0.13954687 0.18200861 0.0033759756 0.15348381
-0.037356123 0.14417423 -0.06273883 0.13165584 -0.0073676687 0.022773232 0.034428712 0.18751018
0.09228508 0.066183865 -0.12696867 0.1793745 0.060338058 -0.58693594 0.26235354 -0.117114544
0.020998487 0.054801308 -0.20695856 -0.1387044 0.11398026 -0.17582785 -0.06027539 0.109082565
-0.10517106 0.24756931 -0.12234125 -0.032084942 -0.07438611 -0.20803633 0.19925812 -0.085228354
0.070016295 0.1158789 -0.16419968 -0.11604836 0.032623693 -0.0025375625 -0.048390914 -0.06621818
-0.025665766 -0.056962695 0.06905927 0.31004012 -0.11120555 -0.3183115 -0.091766156 0.13398437
-0.14010155 -0.019856334 0.23822236 0.069900736 -0.2747617 -0.11603212 -0.07124466 -0.110409975
-0.07718894 -0.12390453 -0.17337157 -0.13269393 0.104945704 0.1265026 0.12690109 -0.13797092
0.0784552 0.14258629 0.1467428 0.028520409 0.14533167 0.09916952 -0.03861694 -0.3672387
-0.13322106 0.012701634 -0.08651336 0.13163272 -0.08542012 0.28926173 0.09351859 -0.28290337
0.20897506 0.14819156 0.06546882 0.15626828 0.13932149 0.07119567 -0.10654095 -0.07054011
-0.00059675734 -0.19748174 -0.14156093 0.13345595 0.005728871 0.028880259 -0.076525584 -0.021437977
0.34589973 0.109945364 0.094821855 -0.05754079 -0.102925025 0.03320972 0.13726556 0.0206009
-0.037551876 -0.20296577 -0.0025095248 0.22120523 -0.15953182 -0.0027830089 -0.3734621 -0.007972279
-0.13042746 -0.10327847 0.22205605 0.17270856 -0.13553263 -0.015590921 -0.109689556 0.02734974
-0.067164674 -0.2323277 0.04804598 -0.08539726 -0.4513351 -0.22687103 0.36756492 -0.19086112
-0.070498325 0.22609283 -0.02155718 0.3282495 -0.026074769 0.0194187 -0.09664202 0.015010015
-0.038867272 -0.112873614 -0.030190777 -0.05238942 0.2683857 0.11084544 -0.39305118 0.23505513
0.09948287 -0.4625765 0.2219819 -0.11019446 0.32638568 -0.3602861 0.16941842 0.1427752
-0.06528727 0.052596122 0.0071372036 0.069694445 -0.0996735 0.18046634 0.010066023 -0.21398342
-0.1613146 0.03719555 0.29020044 -0.18886372 -0.30222625 0.07483712 -0.10054731 -0.1194675
-0.11811562 0.12948531 -0.3111153 -0.09077525 0.18086863 0.33995575 0.06515634 0.17241976
-0.027624395 -0.56110525 0.058904115 0.35751298 -0.43926147 0.19865517 0.09505248 -0.3682388
00000000: a265 cdbd ab3a 0cbd ce10 d1bd bc7e ecbc
00000010: 487d e73e 4f61 9cbd 6eb6 c03d 2bb3 9bbd
00000020: e744 b1bd 287b ce3c 0453 d63b b23c 86bd
00000030: 9832 523d 2174 963e aa1b 3ebd d5c9 e5bd
00000040: 764a 02be a086 4dbe d62f 3d3e 8c07 853e
00000050: e5b1 94bd e3f0 5abe 781e e83b ec05 65be
00000060: c50f 5cbe 4627 093c dcde 783d 9960 34bd
00000070: 9887 9cbd 91b6 923d 9e6b 9c3d 1070 81be
00000080: 7365 813e 4d08 14bc 14c2 6ebd d35e 67be
00000090: 3844 18bd fb4f a93e 0c28 27be 2810 d1bd
000000a0: f5f5 b3be 59d3 12be f7bd 313d 30de fabc
000000b0: d1bb 82bc 17e5 4ebe 158e 80be 72f4 dbbb
000000c0: ef38 12be 35b0 cebc fb24 97ba daa2 ccbd
000000d0: cbf8 bdbd c234 97be 4b5a ab3c 6985 0bbd
000000e0: fa2e ee3d 5691 60be 6a6e 96be 0bc5 2e3c
000000f0: 1e9f 383e 414b 903e e48f c3bc f7b9 b9bd
00000100: f281 663d 854a 213e dbb7 46be 60bd 933d
00000110: 60e5 0ebe 7760 3a3e 793f 5d3b dc2a 1d3e
00000120: bc02 19bd 69a2 133e 377d 80bd cad0 063e
00000130: 7c6c f1bb ee8e ba3c 1f05 0d3d ab02 403e
00000140: f6ff bc3d 688b 873d 1304 02be f3ad 373e
00000150: 0a25 773d 6f41 16bf 3453 863e c0d9 efbd
00000160: 0505 ac3c 5677 603d f2ec 53be 8708 0ebe
00000170: 7c6e e93d 370c 34be 54e3 76bd ae66 df3d
00000180: ed63 d7bd cf82 7d3e 0d8e fabd 806b 03bd
00000190: bf57 98bd 7a07 55be 520a 4c3e 348c aebd
000001a0: b464 8f3d eb51 ed3d f623 28be c3aa edbd
000001b0: 6ca0 053d 3c4d 26bb 8d35 46bd 669d 87bd
000001c0: 0341 d2bc b751 69bd f26e 8d3d 94bd 9e3e
000001d0: bcbf e3bd baf9 a2be e5ef bbbd 3333 093e
000001e0: c876 0fbe c0a9 a2bc 90f0 733e 1e28 8f3d
000001f0: 91ad 8cbe 40a2 edbd b8e8 91bd a01e e2bd
00000200: 3c15 9ebd a9c1 fdbd 5188 31be ebe0 07be
00000210: c6ed d63d e689 013e 5cf2 013e 4048 0dbe
00000220: 1fad a03d 2402 123e bf43 163e a2a3 e93c
00000230: d3d1 143e 6419 cb3d cc2c 1ebd b606 bcbe
00000240: 1a6b 08be 841a 503c eb2d b1bd baca 063e
00000250: bef0 aebd 1d1a 943e ad86 bf3d b6d8 90be
00000260: 8ffd 553e 87bf 173e 8414 863d cb04 203e
00000270: 4baa 0e3e 09cf 913d 2432 dabd 5577 90bd
00000280: b56f 1cba a738 4abe 59f5 10be ada8 083e
00000290: 41b9 bb3b 4b96 ec3c 72b9 9cbd b29e afbc
000002a0: c519 b13e 092b e13d f631 c23d e4af 6bbd
000002b0: 5bca d2bd ea06 083d 588f 0c3e 38c3 a83c
000002c0: ffcf 19bd 42d6 4fbe d776 24bb a083 623e
000002d0: 4f5c 23be 2463 36bb 6d36 bfbe 299e 02bc
000002e0: c78e 05be aa83 d3bd a962 633e 83da 303e
000002f0: 11c9 0abe 1071 7fbc eba4 e0bd 900c e03c
00000300: a28d 89bd 50e7 6dbe ddcb 443d c2e4 aebd
00000310: 6515 e7be e150 68be 7831 bc3e 1971 43be
00000320: 6d61 90bd e184 673e af98 b0bc 5210 a83e
00000330: c19a d5bc f713 9f3c 40ec c5bd 91ec 753c
00000340: 4a33 1fbd 482a e7bd a652 f7bc 4a96 56bd
00000350: da69 893e ef02 e33d 013e c9be 4bb2 703e
00000360: adbd cb3d d4d6 ecbe 394f 633e a2ad e1bd
00000370: 061c a73e 6b77 b8be 067c 2d3e a933 123e
00000380: 55b5 85bd 086f 573d 34df e93b f6bb 8e3d
00000390: 9f21 ccbd 2bcc 383e f6eb 243c 781e 5bbe
000003a0: a82f 25be 5c5a 183d 2795 943e 7e65 41be
000003b0: 66bd 9abe 3444 993d c0eb cdbd 60ab f4bd
000003c0: 9ae6 f1bd cc97 043e 814a 9fbe 60e8 b9bd
000003d0: a035 393e ae0e ae3e b070 853d ce8e 303e
000003e0: 8e4c e2bc 98a4 0fbf 7145 713d f10b b73e
000003f0: e1e6 e0be 436c 4b3e e0aa c23d cc89 bcbe

fc2.bias f4 [64]
0.010466169 0.009757367 0.11911602 0.016289119 0.1310326 -0.27289024 -0.14381522 -0.05534153
0.28182185 0.40409747 -0.046969783 0.1592331 0.0980886 -0.080614574 -0.04416993 0.058071543
-0.03330727 0.02083819 -0.10857486 0.028614156 0.19593571 0.50430447 -0.17294781 -0.07879434
-0.2694433 -0.12516755 0.022954587 -0.09184508 -0.017705387 -0.046604276 0.07088685 -0.10184617
-0.0774236 0.16711034 0.047762834 -0.05218213 -0.058771547 -0.013877921 0.070845455 0.04778826
-0.079454765 0.50112313 0.2905252 -0.036020666 0.05998853 -0.121319324 0.28614756 -0.17048877
0.14102666 -0.04377377 -0.19428404 0.4729193 -0.05547257 -0.13642316 0.22990078 -0.06471791
-0.2032372 -0.0722937 0.01016534 -0.045513466 0.05003598 0.22252928 0.11298502 -0.016357679
00000000: 4b7a 2b3c 5ddd 1f3c 1af3 f33d c270 853c
00000010: 692d 063e 45b8 8bbe 4c44 13be cdad 62bd
00000020: f44a 903e dde5 ce3e 6363 40bd 000e 233e
00000030: ade2 c83d 4119 a5bd 87eb 34bd 6ddc 6d3d
00000040: 346d 08bd dab4 aa3c 7f5c debd 3c68 ea3c
00000050: 5fa3 483e 191a 013f 3b19 31be ed5e a1bd
00000060: 79f4 89be ec2b 00be 420b bc3c 4619 bcbd
00000070: e30a 91bc 20e4 3ebd 202d 913d ba94 d0bd
00000080: 4490 9ebd f91e 2b3e f6a2 433d eebc 55bd
00000090: 6fba 70bd 3860 63bc 6c17 913d 9fbd 433d
000000a0: 2eb9 a2bd 9b49 003f b8bf 943e 688a 13bd
000000b0: 88b6 753d 4476 f8bd ef81 923e 9c94 2ebe
000000c0: 4b69 103e 204c 33bd 65f2 46be 7a22 f23e
000000d0: 3537 63bd 83b2 0bbe 1c6b 6b3e d38a 84bd
000000e0: 6a1d 50be b80e 94bd 878c 263c 546c 3abd
000000f0: 87f2 4c3d b7de 633e b164 e73d 8a00 86bc

fc3.weight f4 [4, 64]
0.28238356 0.23319861 0.08371311 -0.5636899 0.26854306 -0.14827377 0.2064904 -0.0751252
0.10317568 0.09930259 -0.09210852 0.16780014 0.07263363 -0.06213128 0.3578782 0.2264369
-0.0319919 0.569675 -0.20287457 0.10460631 0.162876 0.15419991 -0.0151076615 -0.10902064
-0.32152647 -0.10629298 -0.11129753 -0.11236282 0.050933525 -0.09466536 -0.5174954 -0.039554276
-0.044187438 0.16444865 0.0759979 0.4182699 0.16744289 0.20597133 0.07803374 0.32094905
0.3581205 0.16681747 0.32150742 -0.0053623524 0.1784064 -0.08572088 0.16931996 0.13675126
-0.35509223 0.21944484 -0.26750997 0.25517076 0.3333452 -0.09829665 0.17667079 0.013675991
-0.13659112 -0.1848817 0.24528244 -0.13501287 -0.47576168 0.1602677 0.21637148 0.102355465
0.33310193 0.20880352 0.13348202 -0.45156777 0.2220305 -0.05178361 0.0033628042 -0.21048121
0.042715896 0.13978568 0.0355048 0.16366035 0.041468 0.017736843 0.48010033 0.2555648
-0.09391611 0.3450149 -0.5831738 0.088619865 0.26839057 0.23780404 -0.16554719 -0.027502237
-0.2357733 -0.2172041 -0.13092609 -0.22432747 0.087467074 0.15825734 0.12115115 0.031426292
0.06312575 0.043373164 0.14306214 0.44793326 0.3445715 0.16361713 0.2186274 0.38565463
0.3296859 0.20257653 0.17240265 -0.08869037 0.15855482 -0.053743955 0.16972464 0.18433352
0.00278569 0.15946792 -0.16928454 0.113458775 0.22510625 -0.194222 0.23867135 0.2075629
-0.01056166 -0.3613916 0.11260363 -0.20055926 -0.10175101 0.11074015 -0.35930008 0.1517402
0.2587148 0.13260123 0.24472739 -0.3748297 0.13232577 -0.14311829 0.22881234 -0.152723
0.13619368 0.10514771 -0.20522319 0.37692857 0.1403104 -0.21725143 0.28077272 0.59133834
0.034533754 0.07216689 0.17049192 0.106611006 0.077504046 0.21333498 -0.279826 0.16029145
-0.12297477 -0.27165222 -0.0030149962 -0.21610318 0.39333943 0.31698602 -0.08323018 -0.19538382
0.012345856 -0.013068146 0.21404342 0.69724953 0.095666945 0.22195183 0.25821906 0.0863222
0.31417966 0.15716887 0.25417995 0.2718617 0.14151962 0.014620821 0.11006559 0.18757051
0.054972224 -0.07831311 -0.16597329 0.22470511 -0.556913 -0.021513356 0.2531413 0.395956
-0.27938983 0.041548163 0.35345742 -0.044387214 -0.22315201 0.15338027 0.3576572 0.24436453
0.34164348 0.14232355 0.18217936 -0.28084996 0.046439644 -0.037959505 -0.4276969 -0.021697456
0.17099494 0.20440188 0.11044864 0.060210362 0.21500361 -0.14995223 0.6982781 0.15716584
0.10897766 0.29811582 0.08574459 0.25096676 0.2020978 0.18678309 -0.2626743 0.12621357
-0.25798866 -0.13510743 -0.38738713 0.08406828 0.2542821 -0.14094263 -0.10882761 0.09530473
-0.42602506 0.10214194 0.04093645 0.06205331 0.010440337 0.3075349 0.24140695 0.4770298
0.21740672 0.20212822 0.20400116 -0.07325422 0.3406316 -0.3099225 0.13169959 0.32621828
0.12043587 -0.058248226 0.1478477 0.16711181 -0.0386784 -0.17808184 0.15822147 0.3060181
-0.22166581 -0.16771089 -0.36525828 -0.41822878 -0.35485736 0.04476525 0.108340636 0.28592306
00000000: 9494 903e 9ecb 6e3e c771 ab3d fb4d 10bf
00000010: 7a7e 893e 14d5 17be 3872 533e 3edb 99bd
00000020: c54d d33d 285f cb3d 64a3 bcbd cdd3 2b3e
00000030: f1c0 943d 5e7d 7ebd d03b b73e 13df 673e
00000040: f009 03bd 39d6 113f 5abe 4fbe d53b d63d
00000050: f7c8 263e 95e6 1d3e 2086 77bc 3746 dfbd
00000060: 1e9f a4be 22b0 d9bd f6ef e3bd 7a1e e6bd
00000070: ac9f 503d eadf c1bd 947a 04bf aa03 22bd
00000080: e3fd 34bd 3a65 283e c9a4 9b3d 7927 d63e
00000090: 2676 2b3e 26ea 523e 27d0 9f3d 6f53 a43e
000000a0: 925b b73e 33d2 2a3e 9f9c a43e acb6 afbb
000000b0: 2bb0 363e 6e8e afbd 3662 2d3e 8608 0c3e
000000c0: a6ce b5be 26b6 603e 11f7 88be bea5 823e
000000d0: 39ac aa3e c14f c9bd 30e9 343e 4411 603c
000000e0: 8bde 0bbe a151 3dbe 522b 7b3e d040 0abe
000000f0: 0997 f3be 371d 243e 7c90 5d3e be9f d13d
00000100: 568c aa3e 97d0 553e 83af 083e e433 e7be
00000110: f75b 633e 0d1b 54bd 7e62 5c3b 6388 57be
00000120: ddf6 2e3d fa23 0f3e 7b6d 113d 9496 273e
00000130: 59da 293d db4c 913c b6cf f53e 64d9 823e
00000140: 1757 c0bd cba5 b03e e14a 15bf 557e b53d
00000150: 7d6a 893e e782 733e 3485 29be 5f4c e1bc
00000160: 8e6e 71be c06a 5ebe 7d11 06be 1ab6 65be
00000170: f021 b33d 360e 223e 181e f83d dbb8 003d
00000180: 1348 813d 0fa8 313d e27e 123e 8257 e53e
00000190: ad6b b03e 408b 273e dcdf 5f3e 8674 c53e
000001a0: 97cc a83e 3970 4f3e 528a 303e 4ca3 b5bd
000001b0: 325c 223e 9f22 5cbd 4ccc 2d3e edc1 3c3e
000001c0: 1f90 363b 8f4b 233e ed58 2dbe 135d e83d
000001d0: 4182 663e 22e2 46be 4366 743e 5e8b 543e
000001e0: d00a 2dbc 5208 b9be bb9c e63d 685f 4dbe
000001f0: d562 d0bd bbcb e23d 2ef6 b7be c861 1b3e
00000200: 4476 843e 9ec8 073e d199 7a3e aee9 bfbe
00000210: 6880 073e 9a8d 12be c84d 6a3e 6b63 1cbe
00000220: 5b76 0b3e af57 d73d 0726 52be c8fc c03e
00000230: 88ad 0f3e 2977 5ebe 71c1 8f3e f361 173f
00000240: 4473 0d3d 3ccc 933d 6f95 2e3e df56 da3d
00000250: 71ba 9e3d 7c74 5a3e 5a45 8fbe 7123 243e
00000260: 32da fbbd 0016 8bbe 3e97 45bb 274a 5dbe
00000270: c963 c93e fe4b a23e 9674 aabd b212 48be
00000280: 4646 4a3c c71b 56bc 332e 5b3e f27e 323f
00000290: 08ed c33d 5747 633e 4a35 843e b2c9 b03d
000002a0: 28dc a03e e0f0 203e e023 823e 7531 8b3e
000002b0: 85ea 103e 2b8c 6f3c 116a e13d 7c12 403e
000002c0: 8e2a 613d a062 a0bd e7f4 29be 1919 663e
000002d0: da91 0ebf c73c b0bc bd9b 813e bfba ca3e
000002e0: 2f0c 8fbe 682e 2a3d 5ff8 b43e 5ecf 35bd
000002f0: f681 64be b80f 1d3e d81e b73e b23a 7a3e
00000300: e5eb ae3e 44bd 113e 3a8d 3a3e 91cb 8fbe
00000310: 7f37 3e3d 6d7b 1bbd 17fb dabe ddbe b1bc
00000320: 4c19 2f3e ba4e 513e e632 e23d 249f 763d
00000330: e829 5c3e 148d 19be 5bc2 323f 15f0 203e
00000340: ae2f df3d a3a2 983e dc9a af3d b77e 803e
00000350: baf2 4e3e 1144 3f3e 3f7d 86be 213e 013e
00000360: 1717 84be 9a59 0abe 9b57 c6be fe2b ac3d
00000370: 4331 823e 4453 10be 03e1 debd 202f c33d
00000380: f51f dabe cb2f d13d fbac 273d 9d2b 7e3d
00000390: f20d 2b3c 3775 9d3e 6233 773e 403d f43e
000003a0: de9f 5e3e b3fa 4e3e aee5 503e 4f06 96bd
000003b0: 4467 ae3e 29ae 9ebe 42dc 063e 1506 a73e
000003c0: 15a7 f63d b195 6ebd 6365 173e 5c1f 2b3e
000003d0: 3e6d 1ebd 165b 36be cf04 223e 68ae 9c3e
000003e0: 5dfc 62be 67bc 2bbe 2203 bbbe 1522 d6be
000003f0: ddaf b5be c45b 373d b2e1 dd3d 8264 923e

fc3.bias f4 [4]
0.26325753 0.26938263 0.18427399 0.18022957
00000000: b1c9 863e 85ec 893e 52b2 3c3e 1a8e 383e
